name: "ResNet-50"

layer {
  name: "data"
  type: "Python"
  top: "data"
  top: "data_p"
  top: "label"

  python_param{
    module: "python_data_layer"
    layer: "TrainLayer"
  }
   include {
    phase: TRAIN
  }
}

layer {
  name: "data"
  type: "Python"
  top: "data"
  top: "data_p"
  top: "label"
  python_param{
    module: "python_data_layer"
    layer: "ValLayer"
  }
 include {
    phase: TEST
  }
}

layer {
	bottom: "data"
	top: "conv1"
	name: "conv1"
	type: "Convolution"
	convolution_param {
		num_output: 64
		kernel_size: 7
		pad: 3
		stride: 2
	}
}

layer {
	bottom: "conv1"
	top: "conv1"
	name: "bn_conv1"
	type: "BatchNorm"
	batch_norm_param {
		moving_average_fraction: 0.9
	}
}

layer {
	bottom: "conv1"
	top: "conv1"
	name: "scale_conv1"
	type: "Scale"
	scale_param {
		bias_term: true
	}
}

layer {
	bottom: "conv1"
	top: "conv1"
	name: "conv1_relu"
	type: "ReLU"
}

layer {
	bottom: "conv1"
	top: "pool1"
	name: "pool1"
	type: "Pooling"
	pooling_param {
		kernel_size: 3
		stride: 2
		pool: MAX
	}
}

layer {
	bottom: "pool1"
	top: "res2a_branch1"
	name: "res2a_branch1"
	type: "Convolution"
	convolution_param {
		num_output: 256
		kernel_size: 1
		pad: 0
		stride: 1
		bias_term: false
	}
}

layer {
	bottom: "res2a_branch1"
	top: "res2a_branch1"
	name: "bn2a_branch1"
	type: "BatchNorm"
	batch_norm_param {
		moving_average_fraction: 0.9
	}
}

layer {
	bottom: "res2a_branch1"
	top: "res2a_branch1"
	name: "scale2a_branch1"
	type: "Scale"
	scale_param {
		bias_term: true
	}
}

layer {
	bottom: "pool1"
	top: "res2a_branch2a"
	name: "res2a_branch2a"
	type: "Convolution"
	convolution_param {
		num_output: 64
		kernel_size: 1
		pad: 0
		stride: 1
		bias_term: false
	}
}

layer {
	bottom: "res2a_branch2a"
	top: "res2a_branch2a"
	name: "bn2a_branch2a"
	type: "BatchNorm"
	batch_norm_param {
		moving_average_fraction: 0.9
	}
}

layer {
	bottom: "res2a_branch2a"
	top: "res2a_branch2a"
	name: "scale2a_branch2a"
	type: "Scale"
	scale_param {
		bias_term: true
	}
}

layer {
	bottom: "res2a_branch2a"
	top: "res2a_branch2a"
	name: "res2a_branch2a_relu"
	type: "ReLU"
}

layer {
	bottom: "res2a_branch2a"
	top: "res2a_branch2b"
	name: "res2a_branch2b"
	type: "Convolution"
	convolution_param {
		num_output: 64
		kernel_size: 3
		pad: 1
		stride: 1
		bias_term: false
	}
}

layer {
	bottom: "res2a_branch2b"
	top: "res2a_branch2b"
	name: "bn2a_branch2b"
	type: "BatchNorm"
	batch_norm_param {
		moving_average_fraction: 0.9
	}
}

layer {
	bottom: "res2a_branch2b"
	top: "res2a_branch2b"
	name: "scale2a_branch2b"
	type: "Scale"
	scale_param {
		bias_term: true
	}
}

layer {
	bottom: "res2a_branch2b"
	top: "res2a_branch2b"
	name: "res2a_branch2b_relu"
	type: "ReLU"
}

layer {
	bottom: "res2a_branch2b"
	top: "res2a_branch2c"
	name: "res2a_branch2c"
	type: "Convolution"
	convolution_param {
		num_output: 256
		kernel_size: 1
		pad: 0
		stride: 1
		bias_term: false
	}
}

layer {
	bottom: "res2a_branch2c"
	top: "res2a_branch2c"
	name: "bn2a_branch2c"
	type: "BatchNorm"
	batch_norm_param {
		moving_average_fraction: 0.9
	}
}

layer {
	bottom: "res2a_branch2c"
	top: "res2a_branch2c"
	name: "scale2a_branch2c"
	type: "Scale"
	scale_param {
		bias_term: true
	}
}

layer {
	bottom: "res2a_branch1"
	bottom: "res2a_branch2c"
	top: "res2a"
	name: "res2a"
	type: "Eltwise"
}

layer {
	bottom: "res2a"
	top: "res2a"
	name: "res2a_relu"
	type: "ReLU"
}

layer {
	bottom: "res2a"
	top: "res2b_branch2a"
	name: "res2b_branch2a"
	type: "Convolution"
	convolution_param {
		num_output: 64
		kernel_size: 1
		pad: 0
		stride: 1
		bias_term: false
	}
}

layer {
	bottom: "res2b_branch2a"
	top: "res2b_branch2a"
	name: "bn2b_branch2a"
	type: "BatchNorm"
	batch_norm_param {
		moving_average_fraction: 0.9
	}
}

layer {
	bottom: "res2b_branch2a"
	top: "res2b_branch2a"
	name: "scale2b_branch2a"
	type: "Scale"
	scale_param {
		bias_term: true
	}
}

layer {
	bottom: "res2b_branch2a"
	top: "res2b_branch2a"
	name: "res2b_branch2a_relu"
	type: "ReLU"
}

layer {
	bottom: "res2b_branch2a"
	top: "res2b_branch2b"
	name: "res2b_branch2b"
	type: "Convolution"
	convolution_param {
		num_output: 64
		kernel_size: 3
		pad: 1
		stride: 1
		bias_term: false
	}
}

layer {
	bottom: "res2b_branch2b"
	top: "res2b_branch2b"
	name: "bn2b_branch2b"
	type: "BatchNorm"
	batch_norm_param {
		moving_average_fraction: 0.9
	}
}

layer {
	bottom: "res2b_branch2b"
	top: "res2b_branch2b"
	name: "scale2b_branch2b"
	type: "Scale"
	scale_param {
		bias_term: true
	}
}

layer {
	bottom: "res2b_branch2b"
	top: "res2b_branch2b"
	name: "res2b_branch2b_relu"
	type: "ReLU"
}

layer {
	bottom: "res2b_branch2b"
	top: "res2b_branch2c"
	name: "res2b_branch2c"
	type: "Convolution"
	convolution_param {
		num_output: 256
		kernel_size: 1
		pad: 0
		stride: 1
		bias_term: false
	}
}

layer {
	bottom: "res2b_branch2c"
	top: "res2b_branch2c"
	name: "bn2b_branch2c"
	type: "BatchNorm"
	batch_norm_param {
		moving_average_fraction: 0.9
	}
}

layer {
	bottom: "res2b_branch2c"
	top: "res2b_branch2c"
	name: "scale2b_branch2c"
	type: "Scale"
	scale_param {
		bias_term: true
	}
}

layer {
	bottom: "res2a"
	bottom: "res2b_branch2c"
	top: "res2b"
	name: "res2b"
	type: "Eltwise"
}

layer {
	bottom: "res2b"
	top: "res2b"
	name: "res2b_relu"
	type: "ReLU"
}

layer {
	bottom: "res2b"
	top: "res2c_branch2a"
	name: "res2c_branch2a"
	type: "Convolution"
	convolution_param {
		num_output: 64
		kernel_size: 1
		pad: 0
		stride: 1
		bias_term: false
	}
}

layer {
	bottom: "res2c_branch2a"
	top: "res2c_branch2a"
	name: "bn2c_branch2a"
	type: "BatchNorm"
	batch_norm_param {
		moving_average_fraction: 0.9
	}
}

layer {
	bottom: "res2c_branch2a"
	top: "res2c_branch2a"
	name: "scale2c_branch2a"
	type: "Scale"
	scale_param {
		bias_term: true
	}
}

layer {
	bottom: "res2c_branch2a"
	top: "res2c_branch2a"
	name: "res2c_branch2a_relu"
	type: "ReLU"
}

layer {
	bottom: "res2c_branch2a"
	top: "res2c_branch2b"
	name: "res2c_branch2b"
	type: "Convolution"
	convolution_param {
		num_output: 64
		kernel_size: 3
		pad: 1
		stride: 1
		bias_term: false
	}
}

layer {
	bottom: "res2c_branch2b"
	top: "res2c_branch2b"
	name: "bn2c_branch2b"
	type: "BatchNorm"
	batch_norm_param {
		moving_average_fraction: 0.9
	}
}

layer {
	bottom: "res2c_branch2b"
	top: "res2c_branch2b"
	name: "scale2c_branch2b"
	type: "Scale"
	scale_param {
		bias_term: true
	}
}

layer {
	bottom: "res2c_branch2b"
	top: "res2c_branch2b"
	name: "res2c_branch2b_relu"
	type: "ReLU"
}

layer {
	bottom: "res2c_branch2b"
	top: "res2c_branch2c"
	name: "res2c_branch2c"
	type: "Convolution"
	convolution_param {
		num_output: 256
		kernel_size: 1
		pad: 0
		stride: 1
		bias_term: false
	}
}

layer {
	bottom: "res2c_branch2c"
	top: "res2c_branch2c"
	name: "bn2c_branch2c"
	type: "BatchNorm"
	batch_norm_param {
		moving_average_fraction: 0.9
	}
}

layer {
	bottom: "res2c_branch2c"
	top: "res2c_branch2c"
	name: "scale2c_branch2c"
	type: "Scale"
	scale_param {
		bias_term: true
	}
}

layer {
	bottom: "res2b"
	bottom: "res2c_branch2c"
	top: "res2c"
	name: "res2c"
	type: "Eltwise"
}

layer {
	bottom: "res2c"
	top: "res2c"
	name: "res2c_relu"
	type: "ReLU"
}

layer {
	bottom: "res2c"
	top: "res3a_branch1"
	name: "res3a_branch1"
	type: "Convolution"
	convolution_param {
		num_output: 512
		kernel_size: 1
		pad: 0
		stride: 2
		bias_term: false
	}
}

layer {
	bottom: "res3a_branch1"
	top: "res3a_branch1"
	name: "bn3a_branch1"
	type: "BatchNorm"
	batch_norm_param {
		moving_average_fraction: 0.9
	}
}

layer {
	bottom: "res3a_branch1"
	top: "res3a_branch1"
	name: "scale3a_branch1"
	type: "Scale"
	scale_param {
		bias_term: true
	}
}

layer {
	bottom: "res2c"
	top: "res3a_branch2a"
	name: "res3a_branch2a"
	type: "Convolution"
	convolution_param {
		num_output: 128
		kernel_size: 1
		pad: 0
		stride: 2
		bias_term: false
	}
}

layer {
	bottom: "res3a_branch2a"
	top: "res3a_branch2a"
	name: "bn3a_branch2a"
	type: "BatchNorm"
	batch_norm_param {
		moving_average_fraction: 0.9
	}
}

layer {
	bottom: "res3a_branch2a"
	top: "res3a_branch2a"
	name: "scale3a_branch2a"
	type: "Scale"
	scale_param {
		bias_term: true
	}
}

layer {
	bottom: "res3a_branch2a"
	top: "res3a_branch2a"
	name: "res3a_branch2a_relu"
	type: "ReLU"
}

layer {
	bottom: "res3a_branch2a"
	top: "res3a_branch2b"
	name: "res3a_branch2b"
	type: "Convolution"
	convolution_param {
		num_output: 128
		kernel_size: 3
		pad: 1
		stride: 1
		bias_term: false
	}
}

layer {
	bottom: "res3a_branch2b"
	top: "res3a_branch2b"
	name: "bn3a_branch2b"
	type: "BatchNorm"
	batch_norm_param {
		moving_average_fraction: 0.9
	}
}

layer {
	bottom: "res3a_branch2b"
	top: "res3a_branch2b"
	name: "scale3a_branch2b"
	type: "Scale"
	scale_param {
		bias_term: true
	}
}

layer {
	bottom: "res3a_branch2b"
	top: "res3a_branch2b"
	name: "res3a_branch2b_relu"
	type: "ReLU"
}

layer {
	bottom: "res3a_branch2b"
	top: "res3a_branch2c"
	name: "res3a_branch2c"
	type: "Convolution"
	convolution_param {
		num_output: 512
		kernel_size: 1
		pad: 0
		stride: 1
		bias_term: false
	}
}

layer {
	bottom: "res3a_branch2c"
	top: "res3a_branch2c"
	name: "bn3a_branch2c"
	type: "BatchNorm"
	batch_norm_param {
		moving_average_fraction: 0.9
	}
}

layer {
	bottom: "res3a_branch2c"
	top: "res3a_branch2c"
	name: "scale3a_branch2c"
	type: "Scale"
	scale_param {
		bias_term: true
	}
}

layer {
	bottom: "res3a_branch1"
	bottom: "res3a_branch2c"
	top: "res3a"
	name: "res3a"
	type: "Eltwise"
}

layer {
	bottom: "res3a"
	top: "res3a"
	name: "res3a_relu"
	type: "ReLU"
}

layer {
	bottom: "res3a"
	top: "res3b_branch2a"
	name: "res3b_branch2a"
	type: "Convolution"
	convolution_param {
		num_output: 128
		kernel_size: 1
		pad: 0
		stride: 1
		bias_term: false
	}
}

layer {
	bottom: "res3b_branch2a"
	top: "res3b_branch2a"
	name: "bn3b_branch2a"
	type: "BatchNorm"
	batch_norm_param {
		moving_average_fraction: 0.9
	}
}

layer {
	bottom: "res3b_branch2a"
	top: "res3b_branch2a"
	name: "scale3b_branch2a"
	type: "Scale"
	scale_param {
		bias_term: true
	}
}

layer {
	bottom: "res3b_branch2a"
	top: "res3b_branch2a"
	name: "res3b_branch2a_relu"
	type: "ReLU"
}

layer {
	bottom: "res3b_branch2a"
	top: "res3b_branch2b"
	name: "res3b_branch2b"
	type: "Convolution"
	convolution_param {
		num_output: 128
		kernel_size: 3
		pad: 1
		stride: 1
		bias_term: false
	}
}

layer {
	bottom: "res3b_branch2b"
	top: "res3b_branch2b"
	name: "bn3b_branch2b"
	type: "BatchNorm"
	batch_norm_param {
		moving_average_fraction: 0.9
	}
}

layer {
	bottom: "res3b_branch2b"
	top: "res3b_branch2b"
	name: "scale3b_branch2b"
	type: "Scale"
	scale_param {
		bias_term: true
	}
}

layer {
	bottom: "res3b_branch2b"
	top: "res3b_branch2b"
	name: "res3b_branch2b_relu"
	type: "ReLU"
}

layer {
	bottom: "res3b_branch2b"
	top: "res3b_branch2c"
	name: "res3b_branch2c"
	type: "Convolution"
	convolution_param {
		num_output: 512
		kernel_size: 1
		pad: 0
		stride: 1
		bias_term: false
	}
}

layer {
	bottom: "res3b_branch2c"
	top: "res3b_branch2c"
	name: "bn3b_branch2c"
	type: "BatchNorm"
	batch_norm_param {
		moving_average_fraction: 0.9
	}
}

layer {
	bottom: "res3b_branch2c"
	top: "res3b_branch2c"
	name: "scale3b_branch2c"
	type: "Scale"
	scale_param {
		bias_term: true
	}
}

layer {
	bottom: "res3a"
	bottom: "res3b_branch2c"
	top: "res3b"
	name: "res3b"
	type: "Eltwise"
}

layer {
	bottom: "res3b"
	top: "res3b"
	name: "res3b_relu"
	type: "ReLU"
}

layer {
	bottom: "res3b"
	top: "res3c_branch2a"
	name: "res3c_branch2a"
	type: "Convolution"
	convolution_param {
		num_output: 128
		kernel_size: 1
		pad: 0
		stride: 1
		bias_term: false
	}
}

layer {
	bottom: "res3c_branch2a"
	top: "res3c_branch2a"
	name: "bn3c_branch2a"
	type: "BatchNorm"
	batch_norm_param {
		moving_average_fraction: 0.9
	}
}

layer {
	bottom: "res3c_branch2a"
	top: "res3c_branch2a"
	name: "scale3c_branch2a"
	type: "Scale"
	scale_param {
		bias_term: true
	}
}

layer {
	bottom: "res3c_branch2a"
	top: "res3c_branch2a"
	name: "res3c_branch2a_relu"
	type: "ReLU"
}

layer {
	bottom: "res3c_branch2a"
	top: "res3c_branch2b"
	name: "res3c_branch2b"
	type: "Convolution"
	convolution_param {
		num_output: 128
		kernel_size: 3
		pad: 1
		stride: 1
		bias_term: false
	}
}

layer {
	bottom: "res3c_branch2b"
	top: "res3c_branch2b"
	name: "bn3c_branch2b"
	type: "BatchNorm"
	batch_norm_param {
		moving_average_fraction: 0.9
	}
}

layer {
	bottom: "res3c_branch2b"
	top: "res3c_branch2b"
	name: "scale3c_branch2b"
	type: "Scale"
	scale_param {
		bias_term: true
	}
}

layer {
	bottom: "res3c_branch2b"
	top: "res3c_branch2b"
	name: "res3c_branch2b_relu"
	type: "ReLU"
}

layer {
	bottom: "res3c_branch2b"
	top: "res3c_branch2c"
	name: "res3c_branch2c"
	type: "Convolution"
	convolution_param {
		num_output: 512
		kernel_size: 1
		pad: 0
		stride: 1
		bias_term: false
	}
}

layer {
	bottom: "res3c_branch2c"
	top: "res3c_branch2c"
	name: "bn3c_branch2c"
	type: "BatchNorm"
	batch_norm_param {
		moving_average_fraction: 0.9
	}
}

layer {
	bottom: "res3c_branch2c"
	top: "res3c_branch2c"
	name: "scale3c_branch2c"
	type: "Scale"
	scale_param {
		bias_term: true
	}
}

layer {
	bottom: "res3b"
	bottom: "res3c_branch2c"
	top: "res3c"
	name: "res3c"
	type: "Eltwise"
}

layer {
	bottom: "res3c"
	top: "res3c"
	name: "res3c_relu"
	type: "ReLU"
}

layer {
	bottom: "res3c"
	top: "res3d_branch2a"
	name: "res3d_branch2a"
	type: "Convolution"
	convolution_param {
		num_output: 128
		kernel_size: 1
		pad: 0
		stride: 1
		bias_term: false
	}
}

layer {
	bottom: "res3d_branch2a"
	top: "res3d_branch2a"
	name: "bn3d_branch2a"
	type: "BatchNorm"
	batch_norm_param {
		moving_average_fraction: 0.9
	}
}

layer {
	bottom: "res3d_branch2a"
	top: "res3d_branch2a"
	name: "scale3d_branch2a"
	type: "Scale"
	scale_param {
		bias_term: true
	}
}

layer {
	bottom: "res3d_branch2a"
	top: "res3d_branch2a"
	name: "res3d_branch2a_relu"
	type: "ReLU"
}

layer {
	bottom: "res3d_branch2a"
	top: "res3d_branch2b"
	name: "res3d_branch2b"
	type: "Convolution"
	convolution_param {
		num_output: 128
		kernel_size: 3
		pad: 1
		stride: 1
		bias_term: false
	}
}

layer {
	bottom: "res3d_branch2b"
	top: "res3d_branch2b"
	name: "bn3d_branch2b"
	type: "BatchNorm"
	batch_norm_param {
		moving_average_fraction: 0.9
	}
}

layer {
	bottom: "res3d_branch2b"
	top: "res3d_branch2b"
	name: "scale3d_branch2b"
	type: "Scale"
	scale_param {
		bias_term: true
	}
}

layer {
	bottom: "res3d_branch2b"
	top: "res3d_branch2b"
	name: "res3d_branch2b_relu"
	type: "ReLU"
}

layer {
	bottom: "res3d_branch2b"
	top: "res3d_branch2c"
	name: "res3d_branch2c"
	type: "Convolution"
	convolution_param {
		num_output: 512
		kernel_size: 1
		pad: 0
		stride: 1
		bias_term: false
	}
}

layer {
	bottom: "res3d_branch2c"
	top: "res3d_branch2c"
	name: "bn3d_branch2c"
	type: "BatchNorm"
	batch_norm_param {
		moving_average_fraction: 0.9
	}
}

layer {
	bottom: "res3d_branch2c"
	top: "res3d_branch2c"
	name: "scale3d_branch2c"
	type: "Scale"
	scale_param {
		bias_term: true
	}
}

layer {
	bottom: "res3c"
	bottom: "res3d_branch2c"
	top: "res3d"
	name: "res3d"
	type: "Eltwise"
}

layer {
	bottom: "res3d"
	top: "res3d"
	name: "res3d_relu"
	type: "ReLU"
}

layer {
	bottom: "res3d"
	top: "res4a_branch1"
	name: "res4a_branch1"
	type: "Convolution"
	convolution_param {
		num_output: 1024
		kernel_size: 1
		pad: 0
		stride: 2
		bias_term: false
	}
}

layer {
	bottom: "res4a_branch1"
	top: "res4a_branch1"
	name: "bn4a_branch1"
	type: "BatchNorm"
	batch_norm_param {
		moving_average_fraction: 0.9
	}
}

layer {
	bottom: "res4a_branch1"
	top: "res4a_branch1"
	name: "scale4a_branch1"
	type: "Scale"
	scale_param {
		bias_term: true
	}
}

layer {
	bottom: "res3d"
	top: "res4a_branch2a"
	name: "res4a_branch2a"
	type: "Convolution"
	convolution_param {
		num_output: 256
		kernel_size: 1
		pad: 0
		stride: 2
		bias_term: false
	}
}

layer {
	bottom: "res4a_branch2a"
	top: "res4a_branch2a"
	name: "bn4a_branch2a"
	type: "BatchNorm"
	batch_norm_param {
		moving_average_fraction: 0.9
	}
}

layer {
	bottom: "res4a_branch2a"
	top: "res4a_branch2a"
	name: "scale4a_branch2a"
	type: "Scale"
	scale_param {
		bias_term: true
	}
}

layer {
	bottom: "res4a_branch2a"
	top: "res4a_branch2a"
	name: "res4a_branch2a_relu"
	type: "ReLU"
}

layer {
	bottom: "res4a_branch2a"
	top: "res4a_branch2b"
	name: "res4a_branch2b"
	type: "Convolution"
	convolution_param {
		num_output: 256
		kernel_size: 3
		pad: 1
		stride: 1
		bias_term: false
	}
}

layer {
	bottom: "res4a_branch2b"
	top: "res4a_branch2b"
	name: "bn4a_branch2b"
	type: "BatchNorm"
	batch_norm_param {
		moving_average_fraction: 0.9
	}
}

layer {
	bottom: "res4a_branch2b"
	top: "res4a_branch2b"
	name: "scale4a_branch2b"
	type: "Scale"
	scale_param {
		bias_term: true
	}
}

layer {
	bottom: "res4a_branch2b"
	top: "res4a_branch2b"
	name: "res4a_branch2b_relu"
	type: "ReLU"
}

layer {
	bottom: "res4a_branch2b"
	top: "res4a_branch2c"
	name: "res4a_branch2c"
	type: "Convolution"
	convolution_param {
		num_output: 1024
		kernel_size: 1
		pad: 0
		stride: 1
		bias_term: false
	}
}

layer {
	bottom: "res4a_branch2c"
	top: "res4a_branch2c"
	name: "bn4a_branch2c"
	type: "BatchNorm"
	batch_norm_param {
		moving_average_fraction: 0.9
	}
}

layer {
	bottom: "res4a_branch2c"
	top: "res4a_branch2c"
	name: "scale4a_branch2c"
	type: "Scale"
	scale_param {
		bias_term: true
	}
}

layer {
	bottom: "res4a_branch1"
	bottom: "res4a_branch2c"
	top: "res4a"
	name: "res4a"
	type: "Eltwise"
}

layer {
	bottom: "res4a"
	top: "res4a"
	name: "res4a_relu"
	type: "ReLU"
}

layer {
	bottom: "res4a"
	top: "res4b_branch2a"
	name: "res4b_branch2a"
	type: "Convolution"
	convolution_param {
		num_output: 256
		kernel_size: 1
		pad: 0
		stride: 1
		bias_term: false
	}
}

layer {
	bottom: "res4b_branch2a"
	top: "res4b_branch2a"
	name: "bn4b_branch2a"
	type: "BatchNorm"
	batch_norm_param {
		moving_average_fraction: 0.9
	}
}

layer {
	bottom: "res4b_branch2a"
	top: "res4b_branch2a"
	name: "scale4b_branch2a"
	type: "Scale"
	scale_param {
		bias_term: true
	}
}

layer {
	bottom: "res4b_branch2a"
	top: "res4b_branch2a"
	name: "res4b_branch2a_relu"
	type: "ReLU"
}

layer {
	bottom: "res4b_branch2a"
	top: "res4b_branch2b"
	name: "res4b_branch2b"
	type: "Convolution"
	convolution_param {
		num_output: 256
		kernel_size: 3
		pad: 1
		stride: 1
		bias_term: false
	}
}

layer {
	bottom: "res4b_branch2b"
	top: "res4b_branch2b"
	name: "bn4b_branch2b"
	type: "BatchNorm"
	batch_norm_param {
		moving_average_fraction: 0.9
	}
}

layer {
	bottom: "res4b_branch2b"
	top: "res4b_branch2b"
	name: "scale4b_branch2b"
	type: "Scale"
	scale_param {
		bias_term: true
	}
}

layer {
	bottom: "res4b_branch2b"
	top: "res4b_branch2b"
	name: "res4b_branch2b_relu"
	type: "ReLU"
}

layer {
	bottom: "res4b_branch2b"
	top: "res4b_branch2c"
	name: "res4b_branch2c"
	type: "Convolution"
	convolution_param {
		num_output: 1024
		kernel_size: 1
		pad: 0
		stride: 1
		bias_term: false
	}
}

layer {
	bottom: "res4b_branch2c"
	top: "res4b_branch2c"
	name: "bn4b_branch2c"
	type: "BatchNorm"
	batch_norm_param {
		moving_average_fraction: 0.9
	}
}

layer {
	bottom: "res4b_branch2c"
	top: "res4b_branch2c"
	name: "scale4b_branch2c"
	type: "Scale"
	scale_param {
		bias_term: true
	}
}

layer {
	bottom: "res4a"
	bottom: "res4b_branch2c"
	top: "res4b"
	name: "res4b"
	type: "Eltwise"
}

layer {
	bottom: "res4b"
	top: "res4b"
	name: "res4b_relu"
	type: "ReLU"
}

layer {
	bottom: "res4b"
	top: "res4c_branch2a"
	name: "res4c_branch2a"
	type: "Convolution"
	convolution_param {
		num_output: 256
		kernel_size: 1
		pad: 0
		stride: 1
		bias_term: false
	}
}

layer {
	bottom: "res4c_branch2a"
	top: "res4c_branch2a"
	name: "bn4c_branch2a"
	type: "BatchNorm"
	batch_norm_param {
		moving_average_fraction: 0.9
	}
}

layer {
	bottom: "res4c_branch2a"
	top: "res4c_branch2a"
	name: "scale4c_branch2a"
	type: "Scale"
	scale_param {
		bias_term: true
	}
}

layer {
	bottom: "res4c_branch2a"
	top: "res4c_branch2a"
	name: "res4c_branch2a_relu"
	type: "ReLU"
}

layer {
	bottom: "res4c_branch2a"
	top: "res4c_branch2b"
	name: "res4c_branch2b"
	type: "Convolution"
	convolution_param {
		num_output: 256
		kernel_size: 3
		pad: 1
		stride: 1
		bias_term: false
	}
}

layer {
	bottom: "res4c_branch2b"
	top: "res4c_branch2b"
	name: "bn4c_branch2b"
	type: "BatchNorm"
	batch_norm_param {
		moving_average_fraction: 0.9
	}
}

layer {
	bottom: "res4c_branch2b"
	top: "res4c_branch2b"
	name: "scale4c_branch2b"
	type: "Scale"
	scale_param {
		bias_term: true
	}
}

layer {
	bottom: "res4c_branch2b"
	top: "res4c_branch2b"
	name: "res4c_branch2b_relu"
	type: "ReLU"
}

layer {
	bottom: "res4c_branch2b"
	top: "res4c_branch2c"
	name: "res4c_branch2c"
	type: "Convolution"
	convolution_param {
		num_output: 1024
		kernel_size: 1
		pad: 0
		stride: 1
		bias_term: false
	}
}

layer {
	bottom: "res4c_branch2c"
	top: "res4c_branch2c"
	name: "bn4c_branch2c"
	type: "BatchNorm"
	batch_norm_param {
		moving_average_fraction: 0.9
	}
}

layer {
	bottom: "res4c_branch2c"
	top: "res4c_branch2c"
	name: "scale4c_branch2c"
	type: "Scale"
	scale_param {
		bias_term: true
	}
}

layer {
	bottom: "res4b"
	bottom: "res4c_branch2c"
	top: "res4c"
	name: "res4c"
	type: "Eltwise"
}

layer {
	bottom: "res4c"
	top: "res4c"
	name: "res4c_relu"
	type: "ReLU"
}

layer {
	bottom: "res4c"
	top: "res4d_branch2a"
	name: "res4d_branch2a"
	type: "Convolution"
	convolution_param {
		num_output: 256
		kernel_size: 1
		pad: 0
		stride: 1
		bias_term: false
	}
}

layer {
	bottom: "res4d_branch2a"
	top: "res4d_branch2a"
	name: "bn4d_branch2a"
	type: "BatchNorm"
	batch_norm_param {
		moving_average_fraction: 0.9
	}
}

layer {
	bottom: "res4d_branch2a"
	top: "res4d_branch2a"
	name: "scale4d_branch2a"
	type: "Scale"
	scale_param {
		bias_term: true
	}
}

layer {
	bottom: "res4d_branch2a"
	top: "res4d_branch2a"
	name: "res4d_branch2a_relu"
	type: "ReLU"
}

layer {
	bottom: "res4d_branch2a"
	top: "res4d_branch2b"
	name: "res4d_branch2b"
	type: "Convolution"
	convolution_param {
		num_output: 256
		kernel_size: 3
		pad: 1
		stride: 1
		bias_term: false
	}
}

layer {
	bottom: "res4d_branch2b"
	top: "res4d_branch2b"
	name: "bn4d_branch2b"
	type: "BatchNorm"
	batch_norm_param {
		moving_average_fraction: 0.9
	}
}

layer {
	bottom: "res4d_branch2b"
	top: "res4d_branch2b"
	name: "scale4d_branch2b"
	type: "Scale"
	scale_param {
		bias_term: true
	}
}

layer {
	bottom: "res4d_branch2b"
	top: "res4d_branch2b"
	name: "res4d_branch2b_relu"
	type: "ReLU"
}

layer {
	bottom: "res4d_branch2b"
	top: "res4d_branch2c"
	name: "res4d_branch2c"
	type: "Convolution"
	convolution_param {
		num_output: 1024
		kernel_size: 1
		pad: 0
		stride: 1
		bias_term: false
	}
}

layer {
	bottom: "res4d_branch2c"
	top: "res4d_branch2c"
	name: "bn4d_branch2c"
	type: "BatchNorm"
	batch_norm_param {
		moving_average_fraction: 0.9
	}
}

layer {
	bottom: "res4d_branch2c"
	top: "res4d_branch2c"
	name: "scale4d_branch2c"
	type: "Scale"
	scale_param {
		bias_term: true
	}
}

layer {
	bottom: "res4c"
	bottom: "res4d_branch2c"
	top: "res4d"
	name: "res4d"
	type: "Eltwise"
}

layer {
	bottom: "res4d"
	top: "res4d"
	name: "res4d_relu"
	type: "ReLU"
}

layer {
	bottom: "res4d"
	top: "res4e_branch2a"
	name: "res4e_branch2a"
	type: "Convolution"
	convolution_param {
		num_output: 256
		kernel_size: 1
		pad: 0
		stride: 1
		bias_term: false
	}
}

layer {
	bottom: "res4e_branch2a"
	top: "res4e_branch2a"
	name: "bn4e_branch2a"
	type: "BatchNorm"
	batch_norm_param {
		moving_average_fraction: 0.9
	}
}

layer {
	bottom: "res4e_branch2a"
	top: "res4e_branch2a"
	name: "scale4e_branch2a"
	type: "Scale"
	scale_param {
		bias_term: true
	}
}

layer {
	bottom: "res4e_branch2a"
	top: "res4e_branch2a"
	name: "res4e_branch2a_relu"
	type: "ReLU"
}

layer {
	bottom: "res4e_branch2a"
	top: "res4e_branch2b"
	name: "res4e_branch2b"
	type: "Convolution"
	convolution_param {
		num_output: 256
		kernel_size: 3
		pad: 1
		stride: 1
		bias_term: false
	}
}

layer {
	bottom: "res4e_branch2b"
	top: "res4e_branch2b"
	name: "bn4e_branch2b"
	type: "BatchNorm"
	batch_norm_param {
		moving_average_fraction: 0.9
	}
}

layer {
	bottom: "res4e_branch2b"
	top: "res4e_branch2b"
	name: "scale4e_branch2b"
	type: "Scale"
	scale_param {
		bias_term: true
	}
}

layer {
	bottom: "res4e_branch2b"
	top: "res4e_branch2b"
	name: "res4e_branch2b_relu"
	type: "ReLU"
}

layer {
	bottom: "res4e_branch2b"
	top: "res4e_branch2c"
	name: "res4e_branch2c"
	type: "Convolution"
	convolution_param {
		num_output: 1024
		kernel_size: 1
		pad: 0
		stride: 1
		bias_term: false
	}
}

layer {
	bottom: "res4e_branch2c"
	top: "res4e_branch2c"
	name: "bn4e_branch2c"
	type: "BatchNorm"
	batch_norm_param {
		moving_average_fraction: 0.9
	}
}

layer {
	bottom: "res4e_branch2c"
	top: "res4e_branch2c"
	name: "scale4e_branch2c"
	type: "Scale"
	scale_param {
		bias_term: true
	}
}

layer {
	bottom: "res4d"
	bottom: "res4e_branch2c"
	top: "res4e"
	name: "res4e"
	type: "Eltwise"
}

layer {
	bottom: "res4e"
	top: "res4e"
	name: "res4e_relu"
	type: "ReLU"
}

layer {
	bottom: "res4e"
	top: "res4f_branch2a"
	name: "res4f_branch2a"
	type: "Convolution"
	convolution_param {
		num_output: 256
		kernel_size: 1
		pad: 0
		stride: 1
		bias_term: false
	}
}

layer {
	bottom: "res4f_branch2a"
	top: "res4f_branch2a"
	name: "bn4f_branch2a"
	type: "BatchNorm"
	batch_norm_param {
		moving_average_fraction: 0.9
	}
}

layer {
	bottom: "res4f_branch2a"
	top: "res4f_branch2a"
	name: "scale4f_branch2a"
	type: "Scale"
	scale_param {
		bias_term: true
	}
}

layer {
	bottom: "res4f_branch2a"
	top: "res4f_branch2a"
	name: "res4f_branch2a_relu"
	type: "ReLU"
}

layer {
	bottom: "res4f_branch2a"
	top: "res4f_branch2b"
	name: "res4f_branch2b"
	type: "Convolution"
	convolution_param {
		num_output: 256
		kernel_size: 3
		pad: 1
		stride: 1
		bias_term: false
	}
}

layer {
	bottom: "res4f_branch2b"
	top: "res4f_branch2b"
	name: "bn4f_branch2b"
	type: "BatchNorm"
	batch_norm_param {
		moving_average_fraction: 0.9
	}
}

layer {
	bottom: "res4f_branch2b"
	top: "res4f_branch2b"
	name: "scale4f_branch2b"
	type: "Scale"
	scale_param {
		bias_term: true
	}
}

layer {
	bottom: "res4f_branch2b"
	top: "res4f_branch2b"
	name: "res4f_branch2b_relu"
	type: "ReLU"
}

layer {
	bottom: "res4f_branch2b"
	top: "res4f_branch2c"
	name: "res4f_branch2c"
	type: "Convolution"
	convolution_param {
		num_output: 1024
		kernel_size: 1
		pad: 0
		stride: 1
		bias_term: false
	}
}

layer {
	bottom: "res4f_branch2c"
	top: "res4f_branch2c"
	name: "bn4f_branch2c"
	type: "BatchNorm"
	batch_norm_param {
		moving_average_fraction: 0.9
	}
}

layer {
	bottom: "res4f_branch2c"
	top: "res4f_branch2c"
	name: "scale4f_branch2c"
	type: "Scale"
	scale_param {
		bias_term: true
	}
}

layer {
	bottom: "res4e"
	bottom: "res4f_branch2c"
	top: "res4f"
	name: "res4f"
	type: "Eltwise"
}

layer {
	bottom: "res4f"
	top: "res4f"
	name: "res4f_relu"
	type: "ReLU"
}

layer {
	bottom: "res4f"
	top: "res5a_branch1"
	name: "res5a_branch1"
	type: "Convolution"
	convolution_param {
		num_output: 2048
		kernel_size: 1
		pad: 0
		stride: 2
		bias_term: false
	}
}

layer {
	bottom: "res5a_branch1"
	top: "res5a_branch1"
	name: "bn5a_branch1"
	type: "BatchNorm"
	batch_norm_param {
		moving_average_fraction: 0.9
	}
}

layer {
	bottom: "res5a_branch1"
	top: "res5a_branch1"
	name: "scale5a_branch1"
	type: "Scale"
	scale_param {
		bias_term: true
	}
}

layer {
	bottom: "res4f"
	top: "res5a_branch2a"
	name: "res5a_branch2a"
	type: "Convolution"
	convolution_param {
		num_output: 512
		kernel_size: 1
		pad: 0
		stride: 2
		bias_term: false
	}
}

layer {
	bottom: "res5a_branch2a"
	top: "res5a_branch2a"
	name: "bn5a_branch2a"
	type: "BatchNorm"
	batch_norm_param {
		moving_average_fraction: 0.9
	}
}

layer {
	bottom: "res5a_branch2a"
	top: "res5a_branch2a"
	name: "scale5a_branch2a"
	type: "Scale"
	scale_param {
		bias_term: true
	}
}

layer {
	bottom: "res5a_branch2a"
	top: "res5a_branch2a"
	name: "res5a_branch2a_relu"
	type: "ReLU"
}

layer {
	bottom: "res5a_branch2a"
	top: "res5a_branch2b"
	name: "res5a_branch2b"
	type: "Convolution"
	convolution_param {
		num_output: 512
		kernel_size: 3
		pad: 1
		stride: 1
		bias_term: false
	}
}

layer {
	bottom: "res5a_branch2b"
	top: "res5a_branch2b"
	name: "bn5a_branch2b"
	type: "BatchNorm"
	batch_norm_param {
		moving_average_fraction: 0.9
	}
}

layer {
	bottom: "res5a_branch2b"
	top: "res5a_branch2b"
	name: "scale5a_branch2b"
	type: "Scale"
	scale_param {
		bias_term: true
	}
}

layer {
	bottom: "res5a_branch2b"
	top: "res5a_branch2b"
	name: "res5a_branch2b_relu"
	type: "ReLU"
}

layer {
	bottom: "res5a_branch2b"
	top: "res5a_branch2c"
	name: "res5a_branch2c"
	type: "Convolution"
	convolution_param {
		num_output: 2048
		kernel_size: 1
		pad: 0
		stride: 1
		bias_term: false
	}
}

layer {
	bottom: "res5a_branch2c"
	top: "res5a_branch2c"
	name: "bn5a_branch2c"
	type: "BatchNorm"
	batch_norm_param {
		moving_average_fraction: 0.9
	}
}

layer {
	bottom: "res5a_branch2c"
	top: "res5a_branch2c"
	name: "scale5a_branch2c"
	type: "Scale"
	scale_param {
		bias_term: true
	}
}

layer {
	bottom: "res5a_branch1"
	bottom: "res5a_branch2c"
	top: "res5a"
	name: "res5a"
	type: "Eltwise"
}

layer {
	bottom: "res5a"
	top: "res5a"
	name: "res5a_relu"
	type: "ReLU"
}

layer {
	bottom: "res5a"
	top: "res5b_branch2a"
	name: "res5b_branch2a"
	type: "Convolution"
	convolution_param {
		num_output: 512
		kernel_size: 1
		pad: 0
		stride: 1
		bias_term: false
	}
}

layer {
	bottom: "res5b_branch2a"
	top: "res5b_branch2a"
	name: "bn5b_branch2a"
	type: "BatchNorm"
	batch_norm_param {
		moving_average_fraction: 0.9
	}
}

layer {
	bottom: "res5b_branch2a"
	top: "res5b_branch2a"
	name: "scale5b_branch2a"
	type: "Scale"
	scale_param {
		bias_term: true
	}
}

layer {
	bottom: "res5b_branch2a"
	top: "res5b_branch2a"
	name: "res5b_branch2a_relu"
	type: "ReLU"
}

layer {
	bottom: "res5b_branch2a"
	top: "res5b_branch2b"
	name: "res5b_branch2b"
	type: "Convolution"
	convolution_param {
		num_output: 512
		kernel_size: 3
		pad: 1
		stride: 1
		bias_term: false
	}
}

layer {
	bottom: "res5b_branch2b"
	top: "res5b_branch2b"
	name: "bn5b_branch2b"
	type: "BatchNorm"
	batch_norm_param {
		moving_average_fraction: 0.9
	}
}

layer {
	bottom: "res5b_branch2b"
	top: "res5b_branch2b"
	name: "scale5b_branch2b"
	type: "Scale"
	scale_param {
		bias_term: true
	}
}

layer {
	bottom: "res5b_branch2b"
	top: "res5b_branch2b"
	name: "res5b_branch2b_relu"
	type: "ReLU"
}

layer {
	bottom: "res5b_branch2b"
	top: "res5b_branch2c"
	name: "res5b_branch2c"
	type: "Convolution"
	convolution_param {
		num_output: 2048
		kernel_size: 1
		pad: 0
		stride: 1
		bias_term: false
	}
}

layer {
	bottom: "res5b_branch2c"
	top: "res5b_branch2c"
	name: "bn5b_branch2c"
	type: "BatchNorm"
	batch_norm_param {
		moving_average_fraction: 0.9
	}
}

layer {
	bottom: "res5b_branch2c"
	top: "res5b_branch2c"
	name: "scale5b_branch2c"
	type: "Scale"
	scale_param {
		bias_term: true
	}
}

layer {
	bottom: "res5a"
	bottom: "res5b_branch2c"
	top: "res5b"
	name: "res5b"
	type: "Eltwise"
}

layer {
	bottom: "res5b"
	top: "res5b"
	name: "res5b_relu"
	type: "ReLU"
}

layer {
	bottom: "res5b"
	top: "res5c_branch2a"
	name: "res5c_branch2a"
	type: "Convolution"
	convolution_param {
		num_output: 512
		kernel_size: 1
		pad: 0
		stride: 1
		bias_term: false
	}
}

layer {
	bottom: "res5c_branch2a"
	top: "res5c_branch2a"
	name: "bn5c_branch2a"
	type: "BatchNorm"
	batch_norm_param {
		moving_average_fraction: 0.9
	}
}

layer {
	bottom: "res5c_branch2a"
	top: "res5c_branch2a"
	name: "scale5c_branch2a"
	type: "Scale"
	scale_param {
		bias_term: true
	}
}

layer {
	bottom: "res5c_branch2a"
	top: "res5c_branch2a"
	name: "res5c_branch2a_relu"
	type: "ReLU"
}

layer {
	bottom: "res5c_branch2a"
	top: "res5c_branch2b"
	name: "res5c_branch2b"
	type: "Convolution"
	convolution_param {
		num_output: 512
		kernel_size: 3
		pad: 1
		stride: 1
		bias_term: false
	}
}

layer {
	bottom: "res5c_branch2b"
	top: "res5c_branch2b"
	name: "bn5c_branch2b"
	type: "BatchNorm"
	batch_norm_param {
		moving_average_fraction: 0.9
	}
}

layer {
	bottom: "res5c_branch2b"
	top: "res5c_branch2b"
	name: "scale5c_branch2b"
	type: "Scale"
	scale_param {
		bias_term: true
	}
}

layer {
	bottom: "res5c_branch2b"
	top: "res5c_branch2b"
	name: "res5c_branch2b_relu"
	type: "ReLU"
}

layer {
	bottom: "res5c_branch2b"
	top: "res5c_branch2c"
	name: "res5c_branch2c"
	type: "Convolution"
	convolution_param {
		num_output: 2048
		kernel_size: 1
		pad: 0
		stride: 1
		bias_term: false
	}
}

layer {
	bottom: "res5c_branch2c"
	top: "res5c_branch2c"
	name: "bn5c_branch2c"
	type: "BatchNorm"
	batch_norm_param {
		moving_average_fraction: 0.9
	}
}

layer {
	bottom: "res5c_branch2c"
	top: "res5c_branch2c"
	name: "scale5c_branch2c"
	type: "Scale"
	scale_param {
		bias_term: true
	}
}

layer {
	bottom: "res5b"
	bottom: "res5c_branch2c"
	top: "res5c"
	name: "res5c"
	type: "Eltwise"
}

layer {
	bottom: "res5c"
	top: "res5c"
	name: "res5c_relu"
	type: "ReLU"
}

layer {
	bottom: "res5c"
	top: "pool5"
	name: "pool5"
	type: "Pooling"
	pooling_param {
		kernel_size: 7
		stride: 1
		pool: AVE
	}
}


######################### Parsing Part *****************************

layer {
	bottom: "data_p"
	top: "conv1_p"
	name: "conv1_p"
	type: "Convolution"
	convolution_param {
		num_output: 64
		kernel_size: 7
		pad: 3
		stride: 2
	}
}

layer {
	bottom: "conv1_p"
	top: "conv1_p"
	name: "bn_conv1_p"
	type: "BatchNorm"
	batch_norm_param {
		moving_average_fraction: 0.9
	}
}

layer {
	bottom: "conv1_p"
	top: "conv1_p"
	name: "scale_conv1_p"
	type: "Scale"
	scale_param {
		bias_term: true
	}
}

layer {
	bottom: "conv1_p"
	top: "conv1_p"
	name: "conv1_relu_p"
	type: "ReLU"
}

layer {
	bottom: "conv1_p"
	top: "pool1_p"
	name: "pool1_p"
	type: "Pooling"
	pooling_param {
		kernel_size: 3
		stride: 2
		pool: MAX
	}
}

layer {
	bottom: "pool1_p"
	top: "res2a_branch1_p"
	name: "res2a_branch1_p"
	type: "Convolution"
	convolution_param {
		num_output: 256
		kernel_size: 1
		pad: 0
		stride: 1
		bias_term: false
	}
}

layer {
	bottom: "res2a_branch1_p"
	top: "res2a_branch1_p"
	name: "bn2a_branch1_p"
	type: "BatchNorm"
	batch_norm_param {
		moving_average_fraction: 0.9
	}
}

layer {
	bottom: "res2a_branch1_p"
	top: "res2a_branch1_p"
	name: "scale2a_branch1_p"
	type: "Scale"
	scale_param {
		bias_term: true
	}
}

layer {
	bottom: "pool1_p"
	top: "res2a_branch2a_p"
	name: "res2a_branch2a_p"
	type: "Convolution"
	convolution_param {
		num_output: 64
		kernel_size: 1
		pad: 0
		stride: 1
		bias_term: false
	}
}

layer {
	bottom: "res2a_branch2a_p"
	top: "res2a_branch2a_p"
	name: "bn2a_branch2a_p"
	type: "BatchNorm"
	batch_norm_param {
		moving_average_fraction: 0.9
	}
}

layer {
	bottom: "res2a_branch2a_p"
	top: "res2a_branch2a_p"
	name: "scale2a_branch2a_p"
	type: "Scale"
	scale_param {
		bias_term: true
	}
}

layer {
	bottom: "res2a_branch2a_p"
	top: "res2a_branch2a_p"
	name: "res2a_branch2a_relu_p"
	type: "ReLU"
}

layer {
	bottom: "res2a_branch2a_p"
	top: "res2a_branch2b_p"
	name: "res2a_branch2b_p"
	type: "Convolution"
	convolution_param {
		num_output: 64
		kernel_size: 3
		pad: 1
		stride: 1
		bias_term: false
	}
}

layer {
	bottom: "res2a_branch2b_p"
	top: "res2a_branch2b_p"
	name: "bn2a_branch2b_p"
	type: "BatchNorm"
	batch_norm_param {
		moving_average_fraction: 0.9
	}
}

layer {
	bottom: "res2a_branch2b_p"
	top: "res2a_branch2b_p"
	name: "scale2a_branch2b_p"
	type: "Scale"
	scale_param {
		bias_term: true
	}
}

layer {
	bottom: "res2a_branch2b_p"
	top: "res2a_branch2b_p"
	name: "res2a_branch2b_relu_p"
	type: "ReLU"
}

layer {
	bottom: "res2a_branch2b_p"
	top: "res2a_branch2c_p"
	name: "res2a_branch2c_p"
	type: "Convolution"
	convolution_param {
		num_output: 256
		kernel_size: 1
		pad: 0
		stride: 1
		bias_term: false
	}
}

layer {
	bottom: "res2a_branch2c_p"
	top: "res2a_branch2c_p"
	name: "bn2a_branch2c_p"
	type: "BatchNorm"
	batch_norm_param {
		moving_average_fraction: 0.9
	}
}

layer {
	bottom: "res2a_branch2c_p"
	top: "res2a_branch2c_p"
	name: "scale2a_branch2c_p"
	type: "Scale"
	scale_param {
		bias_term: true
	}
}

layer {
	bottom: "res2a_branch1_p"
	bottom: "res2a_branch2c_p"
	top: "res2a_p"
	name: "res2a_p"
	type: "Eltwise"
}

layer {
	bottom: "res2a_p"
	top: "res2a_p"
	name: "res2a_relu_p"
	type: "ReLU"
}

layer {
	bottom: "res2a_p"
	top: "res2b_branch2a_p"
	name: "res2b_branch2a_p"
	type: "Convolution"
	convolution_param {
		num_output: 64
		kernel_size: 1
		pad: 0
		stride: 1
		bias_term: false
	}
}

layer {
	bottom: "res2b_branch2a_p"
	top: "res2b_branch2a_p"
	name: "bn2b_branch2a_p"
	type: "BatchNorm"
	batch_norm_param {
		moving_average_fraction: 0.9
	}
}

layer {
	bottom: "res2b_branch2a_p"
	top: "res2b_branch2a_p"
	name: "scale2b_branch2a_p"
	type: "Scale"
	scale_param {
		bias_term: true
	}
}

layer {
	bottom: "res2b_branch2a_p"
	top: "res2b_branch2a_p"
	name: "res2b_branch2a_relu_p"
	type: "ReLU"
}

layer {
	bottom: "res2b_branch2a_p"
	top: "res2b_branch2b_p"
	name: "res2b_branch2b_p"
	type: "Convolution"
	convolution_param {
		num_output: 64
		kernel_size: 3
		pad: 1
		stride: 1
		bias_term: false
	}
}

layer {
	bottom: "res2b_branch2b_p"
	top: "res2b_branch2b_p"
	name: "bn2b_branch2b_p"
	type: "BatchNorm"
	batch_norm_param {
		moving_average_fraction: 0.9
	}
}

layer {
	bottom: "res2b_branch2b_p"
	top: "res2b_branch2b_p"
	name: "scale2b_branch2b_p"
	type: "Scale"
	scale_param {
		bias_term: true
	}
}

layer {
	bottom: "res2b_branch2b_p"
	top: "res2b_branch2b_p"
	name: "res2b_branch2b_relu_p"
	type: "ReLU"
}

layer {
	bottom: "res2b_branch2b_p"
	top: "res2b_branch2c_p"
	name: "res2b_branch2c_p"
	type: "Convolution"
	convolution_param {
		num_output: 256
		kernel_size: 1
		pad: 0
		stride: 1
		bias_term: false
	}
}

layer {
	bottom: "res2b_branch2c_p"
	top: "res2b_branch2c_p"
	name: "bn2b_branch2c_p"
	type: "BatchNorm"
	batch_norm_param {
		moving_average_fraction: 0.9
	}
}

layer {
	bottom: "res2b_branch2c_p"
	top: "res2b_branch2c_p"
	name: "scale2b_branch2c_p"
	type: "Scale"
	scale_param {
		bias_term: true
	}
}

layer {
	bottom: "res2a_p"
	bottom: "res2b_branch2c_p"
	top: "res2b_p"
	name: "res2b_p"
	type: "Eltwise"
}

layer {
	bottom: "res2b_p"
	top: "res2b_p"
	name: "res2b_relu_p"
	type: "ReLU"
}

layer {
	bottom: "res2b_p"
	top: "res2c_branch2a_p"
	name: "res2c_branch2a_p"
	type: "Convolution"
	convolution_param {
		num_output: 64
		kernel_size: 1
		pad: 0
		stride: 1
		bias_term: false
	}
}

layer {
	bottom: "res2c_branch2a_p"
	top: "res2c_branch2a_p"
	name: "bn2c_branch2a_p"
	type: "BatchNorm"
	batch_norm_param {
		moving_average_fraction: 0.9
	}
}

layer {
	bottom: "res2c_branch2a_p"
	top: "res2c_branch2a_p"
	name: "scale2c_branch2a_p"
	type: "Scale"
	scale_param {
		bias_term: true
	}
}

layer {
	bottom: "res2c_branch2a_p"
	top: "res2c_branch2a_p"
	name: "res2c_branch2a_relu_p"
	type: "ReLU"
}

layer {
	bottom: "res2c_branch2a_p"
	top: "res2c_branch2b_p"
	name: "res2c_branch2b_p"
	type: "Convolution"
	convolution_param {
		num_output: 64
		kernel_size: 3
		pad: 1
		stride: 1
		bias_term: false
	}
}

layer {
	bottom: "res2c_branch2b_p"
	top: "res2c_branch2b_p"
	name: "bn2c_branch2b_p"
	type: "BatchNorm"
	batch_norm_param {
		moving_average_fraction: 0.9
	}
}

layer {
	bottom: "res2c_branch2b_p"
	top: "res2c_branch2b_p"
	name: "scale2c_branch2b_p"
	type: "Scale"
	scale_param {
		bias_term: true
	}
}

layer {
	bottom: "res2c_branch2b_p"
	top: "res2c_branch2b_p"
	name: "res2c_branch2b_relu_p"
	type: "ReLU"
}

layer {
	bottom: "res2c_branch2b_p"
	top: "res2c_branch2c_p"
	name: "res2c_branch2c_p"
	type: "Convolution"
	convolution_param {
		num_output: 256
		kernel_size: 1
		pad: 0
		stride: 1
		bias_term: false
	}
}

layer {
	bottom: "res2c_branch2c_p"
	top: "res2c_branch2c_p"
	name: "bn2c_branch2c_p"
	type: "BatchNorm"
	batch_norm_param {
		moving_average_fraction: 0.9
	}
}

layer {
	bottom: "res2c_branch2c_p"
	top: "res2c_branch2c_p"
	name: "scale2c_branch2c_p"
	type: "Scale"
	scale_param {
		bias_term: true
	}
}

layer {
	bottom: "res2b_p"
	bottom: "res2c_branch2c_p"
	top: "res2c_p"
	name: "res2c_p"
	type: "Eltwise"
}

layer {
	bottom: "res2c_p"
	top: "res2c_p"
	name: "res2c_relu_p"
	type: "ReLU"
}

layer {
	bottom: "res2c_p"
	top: "res3a_branch1_p"
	name: "res3a_branch1_p"
	type: "Convolution"
	convolution_param {
		num_output: 512
		kernel_size: 1
		pad: 0
		stride: 2
		bias_term: false
	}
}

layer {
	bottom: "res3a_branch1_p"
	top: "res3a_branch1_p"
	name: "bn3a_branch1_p"
	type: "BatchNorm"
	batch_norm_param {
		moving_average_fraction: 0.9
	}
}

layer {
	bottom: "res3a_branch1_p"
	top: "res3a_branch1_p"
	name: "scale3a_branch1_p"
	type: "Scale"
	scale_param {
		bias_term: true
	}
}

layer {
	bottom: "res2c_p"
	top: "res3a_branch2a_p"
	name: "res3a_branch2a_p"
	type: "Convolution"
	convolution_param {
		num_output: 128
		kernel_size: 1
		pad: 0
		stride: 2
		bias_term: false
	}
}

layer {
	bottom: "res3a_branch2a_p"
	top: "res3a_branch2a_p"
	name: "bn3a_branch2a_p"
	type: "BatchNorm"
	batch_norm_param {
		moving_average_fraction: 0.9
	}
}

layer {
	bottom: "res3a_branch2a_p"
	top: "res3a_branch2a_p"
	name: "scale3a_branch2a_p"
	type: "Scale"
	scale_param {
		bias_term: true
	}
}

layer {
	bottom: "res3a_branch2a_p"
	top: "res3a_branch2a_p"
	name: "res3a_branch2a_relu_p"
	type: "ReLU"
}

layer {
	bottom: "res3a_branch2a_p"
	top: "res3a_branch2b_p"
	name: "res3a_branch2b_p"
	type: "Convolution"
	convolution_param {
		num_output: 128
		kernel_size: 3
		pad: 1
		stride: 1
		bias_term: false
	}
}

layer {
	bottom: "res3a_branch2b_p"
	top: "res3a_branch2b_p"
	name: "bn3a_branch2b_p"
	type: "BatchNorm"
	batch_norm_param {
		moving_average_fraction: 0.9
	}
}

layer {
	bottom: "res3a_branch2b_p"
	top: "res3a_branch2b_p"
	name: "scale3a_branch2b_p"
	type: "Scale"
	scale_param {
		bias_term: true
	}
}

layer {
	bottom: "res3a_branch2b_p"
	top: "res3a_branch2b_p"
	name: "res3a_branch2b_relu_p"
	type: "ReLU"
}

layer {
	bottom: "res3a_branch2b_p"
	top: "res3a_branch2c_p"
	name: "res3a_branch2c_p"
	type: "Convolution"
	convolution_param {
		num_output: 512
		kernel_size: 1
		pad: 0
		stride: 1
		bias_term: false
	}
}

layer {
	bottom: "res3a_branch2c_p"
	top: "res3a_branch2c_p"
	name: "bn3a_branch2c_p"
	type: "BatchNorm"
	batch_norm_param {
		moving_average_fraction: 0.9
	}
}

layer {
	bottom: "res3a_branch2c_p"
	top: "res3a_branch2c_p"
	name: "scale3a_branch2c_p"
	type: "Scale"
	scale_param {
		bias_term: true
	}
}

layer {
	bottom: "res3a_branch1_p"
	bottom: "res3a_branch2c_p"
	top: "res3a_p"
	name: "res3a_p"
	type: "Eltwise"
}

layer {
	bottom: "res3a_p"
	top: "res3a_p"
	name: "res3a_relu_p"
	type: "ReLU"
}

layer {
	bottom: "res3a_p"
	top: "res3b_branch2a_p"
	name: "res3b_branch2a_p"
	type: "Convolution"
	convolution_param {
		num_output: 128
		kernel_size: 1
		pad: 0
		stride: 1
		bias_term: false
	}
}

layer {
	bottom: "res3b_branch2a_p"
	top: "res3b_branch2a_p"
	name: "bn3b_branch2a_p"
	type: "BatchNorm"
	batch_norm_param {
		moving_average_fraction: 0.9
	}
}

layer {
	bottom: "res3b_branch2a_p"
	top: "res3b_branch2a_p"
	name: "scale3b_branch2a_p"
	type: "Scale"
	scale_param {
		bias_term: true
	}
}

layer {
	bottom: "res3b_branch2a_p"
	top: "res3b_branch2a_p"
	name: "res3b_branch2a_relu_p"
	type: "ReLU"
}

layer {
	bottom: "res3b_branch2a_p"
	top: "res3b_branch2b_p"
	name: "res3b_branch2b_p"
	type: "Convolution"
	convolution_param {
		num_output: 128
		kernel_size: 3
		pad: 1
		stride: 1
		bias_term: false
	}
}

layer {
	bottom: "res3b_branch2b_p"
	top: "res3b_branch2b_p"
	name: "bn3b_branch2b_p"
	type: "BatchNorm"
	batch_norm_param {
		moving_average_fraction: 0.9
	}
}

layer {
	bottom: "res3b_branch2b_p"
	top: "res3b_branch2b_p"
	name: "scale3b_branch2b_p"
	type: "Scale"
	scale_param {
		bias_term: true
	}
}

layer {
	bottom: "res3b_branch2b_p"
	top: "res3b_branch2b_p"
	name: "res3b_branch2b_relu_p"
	type: "ReLU"
}

layer {
	bottom: "res3b_branch2b_p"
	top: "res3b_branch2c_p"
	name: "res3b_branch2c_p"
	type: "Convolution"
	convolution_param {
		num_output: 512
		kernel_size: 1
		pad: 0
		stride: 1
		bias_term: false
	}
}

layer {
	bottom: "res3b_branch2c_p"
	top: "res3b_branch2c_p"
	name: "bn3b_branch2c_p"
	type: "BatchNorm"
	batch_norm_param {
		moving_average_fraction: 0.9
	}
}

layer {
	bottom: "res3b_branch2c_p"
	top: "res3b_branch2c_p"
	name: "scale3b_branch2c_p"
	type: "Scale"
	scale_param {
		bias_term: true
	}
}

layer {
	bottom: "res3a_p"
	bottom: "res3b_branch2c_p"
	top: "res3b_p"
	name: "res3b_p"
	type: "Eltwise"
}

layer {
	bottom: "res3b_p"
	top: "res3b_p"
	name: "res3b_relu_p"
	type: "ReLU"
}

layer {
	bottom: "res3b_p"
	top: "res3c_branch2a_p"
	name: "res3c_branch2a_p"
	type: "Convolution"
	convolution_param {
		num_output: 128
		kernel_size: 1
		pad: 0
		stride: 1
		bias_term: false
	}
}

layer {
	bottom: "res3c_branch2a_p"
	top: "res3c_branch2a_p"
	name: "bn3c_branch2a_p"
	type: "BatchNorm"
	batch_norm_param {
		moving_average_fraction: 0.9
	}
}

layer {
	bottom: "res3c_branch2a_p"
	top: "res3c_branch2a_p"
	name: "scale3c_branch2a_p"
	type: "Scale"
	scale_param {
		bias_term: true
	}
}

layer {
	bottom: "res3c_branch2a_p"
	top: "res3c_branch2a_p"
	name: "res3c_branch2a_relu_p"
	type: "ReLU"
}

layer {
	bottom: "res3c_branch2a_p"
	top: "res3c_branch2b_p"
	name: "res3c_branch2b_p"
	type: "Convolution"
	convolution_param {
		num_output: 128
		kernel_size: 3
		pad: 1
		stride: 1
		bias_term: false
	}
}

layer {
	bottom: "res3c_branch2b_p"
	top: "res3c_branch2b_p"
	name: "bn3c_branch2b_p"
	type: "BatchNorm"
	batch_norm_param {
		moving_average_fraction: 0.9
	}
}

layer {
	bottom: "res3c_branch2b_p"
	top: "res3c_branch2b_p"
	name: "scale3c_branch2b_p"
	type: "Scale"
	scale_param {
		bias_term: true
	}
}

layer {
	bottom: "res3c_branch2b_p"
	top: "res3c_branch2b_p"
	name: "res3c_branch2b_relu_p"
	type: "ReLU"
}

layer {
	bottom: "res3c_branch2b_p"
	top: "res3c_branch2c_p"
	name: "res3c_branch2c_p"
	type: "Convolution"
	convolution_param {
		num_output: 512
		kernel_size: 1
		pad: 0
		stride: 1
		bias_term: false
	}
}

layer {
	bottom: "res3c_branch2c_p"
	top: "res3c_branch2c_p"
	name: "bn3c_branch2c_p"
	type: "BatchNorm"
	batch_norm_param {
		moving_average_fraction: 0.9
	}
}

layer {
	bottom: "res3c_branch2c_p"
	top: "res3c_branch2c_p"
	name: "scale3c_branch2c_p"
	type: "Scale"
	scale_param {
		bias_term: true
	}
}

layer {
	bottom: "res3b_p"
	bottom: "res3c_branch2c_p"
	top: "res3c_p"
	name: "res3c_p"
	type: "Eltwise"
}

layer {
	bottom: "res3c_p"
	top: "res3c_p"
	name: "res3c_relu_p"
	type: "ReLU"
}

layer {
	bottom: "res3c_p"
	top: "res3d_branch2a_p"
	name: "res3d_branch2a_p"
	type: "Convolution"
	convolution_param {
		num_output: 128
		kernel_size: 1
		pad: 0
		stride: 1
		bias_term: false
	}
}

layer {
	bottom: "res3d_branch2a_p"
	top: "res3d_branch2a_p"
	name: "bn3d_branch2a_p"
	type: "BatchNorm"
	batch_norm_param {
		moving_average_fraction: 0.9
	}
}

layer {
	bottom: "res3d_branch2a_p"
	top: "res3d_branch2a_p"
	name: "scale3d_branch2a_p"
	type: "Scale"
	scale_param {
		bias_term: true
	}
}

layer {
	bottom: "res3d_branch2a_p"
	top: "res3d_branch2a_p"
	name: "res3d_branch2a_relu_p"
	type: "ReLU"
}

layer {
	bottom: "res3d_branch2a_p"
	top: "res3d_branch2b_p"
	name: "res3d_branch2b_p"
	type: "Convolution"
	convolution_param {
		num_output: 128
		kernel_size: 3
		pad: 1
		stride: 1
		bias_term: false
	}
}

layer {
	bottom: "res3d_branch2b_p"
	top: "res3d_branch2b_p"
	name: "bn3d_branch2b_p"
	type: "BatchNorm"
	batch_norm_param {
		moving_average_fraction: 0.9
	}
}

layer {
	bottom: "res3d_branch2b_p"
	top: "res3d_branch2b_p"
	name: "scale3d_branch2b_p"
	type: "Scale"
	scale_param {
		bias_term: true
	}
}

layer {
	bottom: "res3d_branch2b_p"
	top: "res3d_branch2b_p"
	name: "res3d_branch2b_relu_p"
	type: "ReLU"
}

layer {
	bottom: "res3d_branch2b_p"
	top: "res3d_branch2c_p"
	name: "res3d_branch2c_p"
	type: "Convolution"
	convolution_param {
		num_output: 512
		kernel_size: 1
		pad: 0
		stride: 1
		bias_term: false
	}
}

layer {
	bottom: "res3d_branch2c_p"
	top: "res3d_branch2c_p"
	name: "bn3d_branch2c_p"
	type: "BatchNorm"
	batch_norm_param {
		moving_average_fraction: 0.9
	}
}

layer {
	bottom: "res3d_branch2c_p"
	top: "res3d_branch2c_p"
	name: "scale3d_branch2c_p"
	type: "Scale"
	scale_param {
		bias_term: true
	}
}

layer {
	bottom: "res3c_p"
	bottom: "res3d_branch2c_p"
	top: "res3d_p"
	name: "res3d_p"
	type: "Eltwise"
}

layer {
	bottom: "res3d_p"
	top: "res3d_p"
	name: "res3d_relu_p"
	type: "ReLU"
}

layer {
	bottom: "res3d_p"
	top: "res4a_branch1_p"
	name: "res4a_branch1_p"
	type: "Convolution"
	convolution_param {
		num_output: 1024
		kernel_size: 1
		pad: 0
		stride: 2
		bias_term: false
	}
}

layer {
	bottom: "res4a_branch1_p"
	top: "res4a_branch1_p"
	name: "bn4a_branch1_p"
	type: "BatchNorm"
	batch_norm_param {
		moving_average_fraction: 0.9
	}
}

layer {
	bottom: "res4a_branch1_p"
	top: "res4a_branch1_p"
	name: "scale4a_branch1_p"
	type: "Scale"
	scale_param {
		bias_term: true
	}
}

layer {
	bottom: "res3d_p"
	top: "res4a_branch2a_p"
	name: "res4a_branch2a_p"
	type: "Convolution"
	convolution_param {
		num_output: 256
		kernel_size: 1
		pad: 0
		stride: 2
		bias_term: false
	}
}

layer {
	bottom: "res4a_branch2a_p"
	top: "res4a_branch2a_p"
	name: "bn4a_branch2a_p"
	type: "BatchNorm"
	batch_norm_param {
		moving_average_fraction: 0.9
	}
}

layer {
	bottom: "res4a_branch2a_p"
	top: "res4a_branch2a_p"
	name: "scale4a_branch2a_p"
	type: "Scale"
	scale_param {
		bias_term: true
	}
}

layer {
	bottom: "res4a_branch2a_p"
	top: "res4a_branch2a_p"
	name: "res4a_branch2a_relu_p"
	type: "ReLU"
}

layer {
	bottom: "res4a_branch2a_p"
	top: "res4a_branch2b_p"
	name: "res4a_branch2b_p"
	type: "Convolution"
	convolution_param {
		num_output: 256
		kernel_size: 3
		pad: 1
		stride: 1
		bias_term: false
	}
}

layer {
	bottom: "res4a_branch2b_p"
	top: "res4a_branch2b_p"
	name: "bn4a_branch2b_p"
	type: "BatchNorm"
	batch_norm_param {
		moving_average_fraction: 0.9
	}
}

layer {
	bottom: "res4a_branch2b_p"
	top: "res4a_branch2b_p"
	name: "scale4a_branch2b_p"
	type: "Scale"
	scale_param {
		bias_term: true
	}
}

layer {
	bottom: "res4a_branch2b_p"
	top: "res4a_branch2b_p"
	name: "res4a_branch2b_relu_p"
	type: "ReLU"
}

layer {
	bottom: "res4a_branch2b_p"
	top: "res4a_branch2c_p"
	name: "res4a_branch2c_p"
	type: "Convolution"
	convolution_param {
		num_output: 1024
		kernel_size: 1
		pad: 0
		stride: 1
		bias_term: false
	}
}

layer {
	bottom: "res4a_branch2c_p"
	top: "res4a_branch2c_p"
	name: "bn4a_branch2c_p"
	type: "BatchNorm"
	batch_norm_param {
		moving_average_fraction: 0.9
	}
}

layer {
	bottom: "res4a_branch2c_p"
	top: "res4a_branch2c_p"
	name: "scale4a_branch2c_p"
	type: "Scale"
	scale_param {
		bias_term: true
	}
}

layer {
	bottom: "res4a_branch1_p"
	bottom: "res4a_branch2c_p"
	top: "res4a_p"
	name: "res4a_p"
	type: "Eltwise"
}

layer {
	bottom: "res4a_p"
	top: "res4a_p"
	name: "res4a_relu_p"
	type: "ReLU"
}

layer {
	bottom: "res4a_p"
	top: "res4b_branch2a_p"
	name: "res4b_branch2a_p"
	type: "Convolution"
	convolution_param {
		num_output: 256
		kernel_size: 1
		pad: 0
		stride: 1
		bias_term: false
	}
}

layer {
	bottom: "res4b_branch2a_p"
	top: "res4b_branch2a_p"
	name: "bn4b_branch2a_p"
	type: "BatchNorm"
	batch_norm_param {
		moving_average_fraction: 0.9
	}
}

layer {
	bottom: "res4b_branch2a_p"
	top: "res4b_branch2a_p"
	name: "scale4b_branch2a_p"
	type: "Scale"
	scale_param {
		bias_term: true
	}
}

layer {
	bottom: "res4b_branch2a_p"
	top: "res4b_branch2a_p"
	name: "res4b_branch2a_relu_p"
	type: "ReLU"
}

layer {
	bottom: "res4b_branch2a_p"
	top: "res4b_branch2b_p"
	name: "res4b_branch2b_p"
	type: "Convolution"
	convolution_param {
		num_output: 256
		kernel_size: 3
		pad: 1
		stride: 1
		bias_term: false
	}
}

layer {
	bottom: "res4b_branch2b_p"
	top: "res4b_branch2b_p"
	name: "bn4b_branch2b_p"
	type: "BatchNorm"
	batch_norm_param {
		moving_average_fraction: 0.9
	}
}

layer {
	bottom: "res4b_branch2b_p"
	top: "res4b_branch2b_p"
	name: "scale4b_branch2b_p"
	type: "Scale"
	scale_param {
		bias_term: true
	}
}

layer {
	bottom: "res4b_branch2b_p"
	top: "res4b_branch2b_p"
	name: "res4b_branch2b_relu_p"
	type: "ReLU"
}

layer {
	bottom: "res4b_branch2b_p"
	top: "res4b_branch2c_p"
	name: "res4b_branch2c_p"
	type: "Convolution"
	convolution_param {
		num_output: 1024
		kernel_size: 1
		pad: 0
		stride: 1
		bias_term: false
	}
}

layer {
	bottom: "res4b_branch2c_p"
	top: "res4b_branch2c_p"
	name: "bn4b_branch2c_p"
	type: "BatchNorm"
	batch_norm_param {
		moving_average_fraction: 0.9
	}
}

layer {
	bottom: "res4b_branch2c_p"
	top: "res4b_branch2c_p"
	name: "scale4b_branch2c_p"
	type: "Scale"
	scale_param {
		bias_term: true
	}
}

layer {
	bottom: "res4a_p"
	bottom: "res4b_branch2c_p"
	top: "res4b_p"
	name: "res4b_p"
	type: "Eltwise"
}

layer {
	bottom: "res4b_p"
	top: "res4b_p"
	name: "res4b_relu_p"
	type: "ReLU"
}

layer {
	bottom: "res4b_p"
	top: "res4c_branch2a_p"
	name: "res4c_branch2a_p"
	type: "Convolution"
	convolution_param {
		num_output: 256
		kernel_size: 1
		pad: 0
		stride: 1
		bias_term: false
	}
}

layer {
	bottom: "res4c_branch2a_p"
	top: "res4c_branch2a_p"
	name: "bn4c_branch2a_p"
	type: "BatchNorm"
	batch_norm_param {
		moving_average_fraction: 0.9
	}
}

layer {
	bottom: "res4c_branch2a_p"
	top: "res4c_branch2a_p"
	name: "scale4c_branch2a_p"
	type: "Scale"
	scale_param {
		bias_term: true
	}
}

layer {
	bottom: "res4c_branch2a_p"
	top: "res4c_branch2a_p"
	name: "res4c_branch2a_relu_p"
	type: "ReLU"
}

layer {
	bottom: "res4c_branch2a_p"
	top: "res4c_branch2b_p"
	name: "res4c_branch2b_p"
	type: "Convolution"
	convolution_param {
		num_output: 256
		kernel_size: 3
		pad: 1
		stride: 1
		bias_term: false
	}
}

layer {
	bottom: "res4c_branch2b_p"
	top: "res4c_branch2b_p"
	name: "bn4c_branch2b_p"
	type: "BatchNorm"
	batch_norm_param {
		moving_average_fraction: 0.9
	}
}

layer {
	bottom: "res4c_branch2b_p"
	top: "res4c_branch2b_p"
	name: "scale4c_branch2b_p"
	type: "Scale"
	scale_param {
		bias_term: true
	}
}

layer {
	bottom: "res4c_branch2b_p"
	top: "res4c_branch2b_p"
	name: "res4c_branch2b_relu_p"
	type: "ReLU"
}

layer {
	bottom: "res4c_branch2b_p"
	top: "res4c_branch2c_p"
	name: "res4c_branch2c_p"
	type: "Convolution"
	convolution_param {
		num_output: 1024
		kernel_size: 1
		pad: 0
		stride: 1
		bias_term: false
	}
}

layer {
	bottom: "res4c_branch2c_p"
	top: "res4c_branch2c_p"
	name: "bn4c_branch2c_p"
	type: "BatchNorm"
	batch_norm_param {
		moving_average_fraction: 0.9
	}
}

layer {
	bottom: "res4c_branch2c_p"
	top: "res4c_branch2c_p"
	name: "scale4c_branch2c_p"
	type: "Scale"
	scale_param {
		bias_term: true
	}
}

layer {
	bottom: "res4b_p"
	bottom: "res4c_branch2c_p"
	top: "res4c_p"
	name: "res4c_p"
	type: "Eltwise"
}

layer {
	bottom: "res4c_p"
	top: "res4c_p"
	name: "res4c_relu_p"
	type: "ReLU"
}

layer {
	bottom: "res4c_p"
	top: "res4d_branch2a_p"
	name: "res4d_branch2a_p"
	type: "Convolution"
	convolution_param {
		num_output: 256
		kernel_size: 1
		pad: 0
		stride: 1
		bias_term: false
	}
}

layer {
	bottom: "res4d_branch2a_p"
	top: "res4d_branch2a_p"
	name: "bn4d_branch2a_p"
	type: "BatchNorm"
	batch_norm_param {
		moving_average_fraction: 0.9
	}
}

layer {
	bottom: "res4d_branch2a_p"
	top: "res4d_branch2a_p"
	name: "scale4d_branch2a_p"
	type: "Scale"
	scale_param {
		bias_term: true
	}
}

layer {
	bottom: "res4d_branch2a_p"
	top: "res4d_branch2a_p"
	name: "res4d_branch2a_relu_p"
	type: "ReLU"
}

layer {
	bottom: "res4d_branch2a_p"
	top: "res4d_branch2b_p"
	name: "res4d_branch2b_p"
	type: "Convolution"
	convolution_param {
		num_output: 256
		kernel_size: 3
		pad: 1
		stride: 1
		bias_term: false
	}
}

layer {
	bottom: "res4d_branch2b_p"
	top: "res4d_branch2b_p"
	name: "bn4d_branch2b_p"
	type: "BatchNorm"
	batch_norm_param {
		moving_average_fraction: 0.9
	}
}

layer {
	bottom: "res4d_branch2b_p"
	top: "res4d_branch2b_p"
	name: "scale4d_branch2b_p"
	type: "Scale"
	scale_param {
		bias_term: true
	}
}

layer {
	bottom: "res4d_branch2b_p"
	top: "res4d_branch2b_p"
	name: "res4d_branch2b_relu_p"
	type: "ReLU"
}

layer {
	bottom: "res4d_branch2b_p"
	top: "res4d_branch2c_p"
	name: "res4d_branch2c_p"
	type: "Convolution"
	convolution_param {
		num_output: 1024
		kernel_size: 1
		pad: 0
		stride: 1
		bias_term: false
	}
}

layer {
	bottom: "res4d_branch2c_p"
	top: "res4d_branch2c_p"
	name: "bn4d_branch2c_p"
	type: "BatchNorm"
	batch_norm_param {
		moving_average_fraction: 0.9
	}
}

layer {
	bottom: "res4d_branch2c_p"
	top: "res4d_branch2c_p"
	name: "scale4d_branch2c_p"
	type: "Scale"
	scale_param {
		bias_term: true
	}
}

layer {
	bottom: "res4c_p"
	bottom: "res4d_branch2c_p"
	top: "res4d_p"
	name: "res4d_p"
	type: "Eltwise"
}

layer {
	bottom: "res4d_p"
	top: "res4d_p"
	name: "res4d_relu_p"
	type: "ReLU"
}

layer {
	bottom: "res4d_p"
	top: "res4e_branch2a_p"
	name: "res4e_branch2a_p"
	type: "Convolution"
	convolution_param {
		num_output: 256
		kernel_size: 1
		pad: 0
		stride: 1
		bias_term: false
	}
}

layer {
	bottom: "res4e_branch2a_p"
	top: "res4e_branch2a_p"
	name: "bn4e_branch2a_p"
	type: "BatchNorm"
	batch_norm_param {
		moving_average_fraction: 0.9
	}
}

layer {
	bottom: "res4e_branch2a_p"
	top: "res4e_branch2a_p"
	name: "scale4e_branch2a_p"
	type: "Scale"
	scale_param {
		bias_term: true
	}
}

layer {
	bottom: "res4e_branch2a_p"
	top: "res4e_branch2a_p"
	name: "res4e_branch2a_relu_p"
	type: "ReLU"
}

layer {
	bottom: "res4e_branch2a_p"
	top: "res4e_branch2b_p"
	name: "res4e_branch2b_p"
	type: "Convolution"
	convolution_param {
		num_output: 256
		kernel_size: 3
		pad: 1
		stride: 1
		bias_term: false
	}
}

layer {
	bottom: "res4e_branch2b_p"
	top: "res4e_branch2b_p"
	name: "bn4e_branch2b_p"
	type: "BatchNorm"
	batch_norm_param {
		moving_average_fraction: 0.9
	}
}

layer {
	bottom: "res4e_branch2b_p"
	top: "res4e_branch2b_p"
	name: "scale4e_branch2b_p"
	type: "Scale"
	scale_param {
		bias_term: true
	}
}

layer {
	bottom: "res4e_branch2b_p"
	top: "res4e_branch2b_p"
	name: "res4e_branch2b_relu_p"
	type: "ReLU"
}

layer {
	bottom: "res4e_branch2b_p"
	top: "res4e_branch2c_p"
	name: "res4e_branch2c_p"
	type: "Convolution"
	convolution_param {
		num_output: 1024
		kernel_size: 1
		pad: 0
		stride: 1
		bias_term: false
	}
}

layer {
	bottom: "res4e_branch2c_p"
	top: "res4e_branch2c_p"
	name: "bn4e_branch2c_p"
	type: "BatchNorm"
	batch_norm_param {
		moving_average_fraction: 0.9
	}
}

layer {
	bottom: "res4e_branch2c_p"
	top: "res4e_branch2c_p"
	name: "scale4e_branch2c_p"
	type: "Scale"
	scale_param {
		bias_term: true
	}
}

layer {
	bottom: "res4d_p"
	bottom: "res4e_branch2c_p"
	top: "res4e_p"
	name: "res4e_p"
	type: "Eltwise"
}

layer {
	bottom: "res4e_p"
	top: "res4e_p"
	name: "res4e_relu_p"
	type: "ReLU"
}

layer {
	bottom: "res4e_p"
	top: "res4f_branch2a_p"
	name: "res4f_branch2a_p"
	type: "Convolution"
	convolution_param {
		num_output: 256
		kernel_size: 1
		pad: 0
		stride: 1
		bias_term: false
	}
}

layer {
	bottom: "res4f_branch2a_p"
	top: "res4f_branch2a_p"
	name: "bn4f_branch2a_p"
	type: "BatchNorm"
	batch_norm_param {
		moving_average_fraction: 0.9
	}
}

layer {
	bottom: "res4f_branch2a_p"
	top: "res4f_branch2a_p"
	name: "scale4f_branch2a_p"
	type: "Scale"
	scale_param {
		bias_term: true
	}
}

layer {
	bottom: "res4f_branch2a_p"
	top: "res4f_branch2a_p"
	name: "res4f_branch2a_relu_p"
	type: "ReLU"
}

layer {
	bottom: "res4f_branch2a_p"
	top: "res4f_branch2b_p"
	name: "res4f_branch2b_p"
	type: "Convolution"
	convolution_param {
		num_output: 256
		kernel_size: 3
		pad: 1
		stride: 1
		bias_term: false
	}
}

layer {
	bottom: "res4f_branch2b_p"
	top: "res4f_branch2b_p"
	name: "bn4f_branch2b_p"
	type: "BatchNorm"
	batch_norm_param {
		moving_average_fraction: 0.9
	}
}

layer {
	bottom: "res4f_branch2b_p"
	top: "res4f_branch2b_p"
	name: "scale4f_branch2b_p"
	type: "Scale"
	scale_param {
		bias_term: true
	}
}

layer {
	bottom: "res4f_branch2b_p"
	top: "res4f_branch2b_p"
	name: "res4f_branch2b_relu_p"
	type: "ReLU"
}

layer {
	bottom: "res4f_branch2b_p"
	top: "res4f_branch2c_p"
	name: "res4f_branch2c_p"
	type: "Convolution"
	convolution_param {
		num_output: 1024
		kernel_size: 1
		pad: 0
		stride: 1
		bias_term: false
	}
}

layer {
	bottom: "res4f_branch2c_p"
	top: "res4f_branch2c_p"
	name: "bn4f_branch2c_p"
	type: "BatchNorm"
	batch_norm_param {
		moving_average_fraction: 0.9
	}
}

layer {
	bottom: "res4f_branch2c_p"
	top: "res4f_branch2c_p"
	name: "scale4f_branch2c_p"
	type: "Scale"
	scale_param {
		bias_term: true
	}
}

layer {
	bottom: "res4e_p"
	bottom: "res4f_branch2c_p"
	top: "res4f_p"
	name: "res4f_p"
	type: "Eltwise"
}

layer {
	bottom: "res4f_p"
	top: "res4f_p"
	name: "res4f_relu_p"
	type: "ReLU"
}

layer {
	bottom: "res4f_p"
	top: "res5a_branch1_p"
	name: "res5a_branch1_p"
	type: "Convolution"
	convolution_param {
		num_output: 2048
		kernel_size: 1
		pad: 0
		stride: 2
		bias_term: false
	}
}

layer {
	bottom: "res5a_branch1_p"
	top: "res5a_branch1_p"
	name: "bn5a_branch1_p"
	type: "BatchNorm"
	batch_norm_param {
		moving_average_fraction: 0.9
	}
}

layer {
	bottom: "res5a_branch1_p"
	top: "res5a_branch1_p"
	name: "scale5a_branch1_p"
	type: "Scale"
	scale_param {
		bias_term: true
	}
}

layer {
	bottom: "res4f_p"
	top: "res5a_branch2a_p"
	name: "res5a_branch2a_p"
	type: "Convolution"
	convolution_param {
		num_output: 512
		kernel_size: 1
		pad: 0
		stride: 2
		bias_term: false
	}
}

layer {
	bottom: "res5a_branch2a_p"
	top: "res5a_branch2a_p"
	name: "bn5a_branch2a_p"
	type: "BatchNorm"
	batch_norm_param {
		moving_average_fraction: 0.9
	}
}

layer {
	bottom: "res5a_branch2a_p"
	top: "res5a_branch2a_p"
	name: "scale5a_branch2a_p"
	type: "Scale"
	scale_param {
		bias_term: true
	}
}

layer {
	bottom: "res5a_branch2a_p"
	top: "res5a_branch2a_p"
	name: "res5a_branch2a_relu_p"
	type: "ReLU"
}

layer {
	bottom: "res5a_branch2a_p"
	top: "res5a_branch2b_p"
	name: "res5a_branch2b_p"
	type: "Convolution"
	convolution_param {
		num_output: 512
		kernel_size: 3
		pad: 1
		stride: 1
		bias_term: false
	}
}

layer {
	bottom: "res5a_branch2b_p"
	top: "res5a_branch2b_p"
	name: "bn5a_branch2b_p"
	type: "BatchNorm"
	batch_norm_param {
		moving_average_fraction: 0.9
	}
}

layer {
	bottom: "res5a_branch2b_p"
	top: "res5a_branch2b_p"
	name: "scale5a_branch2b_p"
	type: "Scale"
	scale_param {
		bias_term: true
	}
}

layer {
	bottom: "res5a_branch2b_p"
	top: "res5a_branch2b_p"
	name: "res5a_branch2b_relu_p"
	type: "ReLU"
}

layer {
	bottom: "res5a_branch2b_p"
	top: "res5a_branch2c_p"
	name: "res5a_branch2c_p"
	type: "Convolution"
	convolution_param {
		num_output: 2048
		kernel_size: 1
		pad: 0
		stride: 1
		bias_term: false
	}
}

layer {
	bottom: "res5a_branch2c_p"
	top: "res5a_branch2c_p"
	name: "bn5a_branch2c_p"
	type: "BatchNorm"
	batch_norm_param {
		moving_average_fraction: 0.9
	}
}

layer {
	bottom: "res5a_branch2c_p"
	top: "res5a_branch2c_p"
	name: "scale5a_branch2c_p"
	type: "Scale"
	scale_param {
		bias_term: true
	}
}

layer {
	bottom: "res5a_branch1_p"
	bottom: "res5a_branch2c_p"
	top: "res5a_p"
	name: "res5a_p"
	type: "Eltwise"
}

layer {
	bottom: "res5a_p"
	top: "res5a_p"
	name: "res5a_relu_p"
	type: "ReLU"
}

layer {
	bottom: "res5a_p"
	top: "res5b_branch2a_p"
	name: "res5b_branch2a_p"
	type: "Convolution"
	convolution_param {
		num_output: 512
		kernel_size: 1
		pad: 0
		stride: 1
		bias_term: false
	}
}

layer {
	bottom: "res5b_branch2a_p"
	top: "res5b_branch2a_p"
	name: "bn5b_branch2a_p"
	type: "BatchNorm"
	batch_norm_param {
		moving_average_fraction: 0.9
	}
}

layer {
	bottom: "res5b_branch2a_p"
	top: "res5b_branch2a_p"
	name: "scale5b_branch2a_p"
	type: "Scale"
	scale_param {
		bias_term: true
	}
}

layer {
	bottom: "res5b_branch2a_p"
	top: "res5b_branch2a_p"
	name: "res5b_branch2a_relu_p"
	type: "ReLU"
}

layer {
	bottom: "res5b_branch2a_p"
	top: "res5b_branch2b_p"
	name: "res5b_branch2b_p"
	type: "Convolution"
	convolution_param {
		num_output: 512
		kernel_size: 3
		pad: 1
		stride: 1
		bias_term: false
	}
}

layer {
	bottom: "res5b_branch2b_p"
	top: "res5b_branch2b_p"
	name: "bn5b_branch2b_p"
	type: "BatchNorm"
	batch_norm_param {
		moving_average_fraction: 0.9
	}
}

layer {
	bottom: "res5b_branch2b_p"
	top: "res5b_branch2b_p"
	name: "scale5b_branch2b_p"
	type: "Scale"
	scale_param {
		bias_term: true
	}
}

layer {
	bottom: "res5b_branch2b_p"
	top: "res5b_branch2b_p"
	name: "res5b_branch2b_relu_p"
	type: "ReLU"
}

layer {
	bottom: "res5b_branch2b_p"
	top: "res5b_branch2c_p"
	name: "res5b_branch2c_p"
	type: "Convolution"
	convolution_param {
		num_output: 2048
		kernel_size: 1
		pad: 0
		stride: 1
		bias_term: false
	}
}

layer {
	bottom: "res5b_branch2c_p"
	top: "res5b_branch2c_p"
	name: "bn5b_branch2c_p"
	type: "BatchNorm"
	batch_norm_param {
		moving_average_fraction: 0.9
	}
}

layer {
	bottom: "res5b_branch2c_p"
	top: "res5b_branch2c_p"
	name: "scale5b_branch2c_p"
	type: "Scale"
	scale_param {
		bias_term: true
	}
}

layer {
	bottom: "res5a_p"
	bottom: "res5b_branch2c_p"
	top: "res5b_p"
	name: "res5b_p"
	type: "Eltwise"
}

layer {
	bottom: "res5b_p"
	top: "res5b_p"
	name: "res5b_relu_p"
	type: "ReLU"
}

layer {
	bottom: "res5b_p"
	top: "res5c_branch2a_p"
	name: "res5c_branch2a_p"
	type: "Convolution"
	convolution_param {
		num_output: 512
		kernel_size: 1
		pad: 0
		stride: 1
		bias_term: false
	}
}

layer {
	bottom: "res5c_branch2a_p"
	top: "res5c_branch2a_p"
	name: "bn5c_branch2a_p"
	type: "BatchNorm"
	batch_norm_param {
		moving_average_fraction: 0.9
	}
}

layer {
	bottom: "res5c_branch2a_p"
	top: "res5c_branch2a_p"
	name: "scale5c_branch2a_p"
	type: "Scale"
	scale_param {
		bias_term: true
	}
}

layer {
	bottom: "res5c_branch2a_p"
	top: "res5c_branch2a_p"
	name: "res5c_branch2a_relu_p"
	type: "ReLU"
}

layer {
	bottom: "res5c_branch2a_p"
	top: "res5c_branch2b_p"
	name: "res5c_branch2b_p"
	type: "Convolution"
	convolution_param {
		num_output: 512
		kernel_size: 3
		pad: 1
		stride: 1
		bias_term: false
	}
}

layer {
	bottom: "res5c_branch2b_p"
	top: "res5c_branch2b_p"
	name: "bn5c_branch2b_p"
	type: "BatchNorm"
	batch_norm_param {
		moving_average_fraction: 0.9
	}
}

layer {
	bottom: "res5c_branch2b_p"
	top: "res5c_branch2b_p"
	name: "scale5c_branch2b_p"
	type: "Scale"
	scale_param {
		bias_term: true
	}
}

layer {
	bottom: "res5c_branch2b_p"
	top: "res5c_branch2b_p"
	name: "res5c_branch2b_relu_p"
	type: "ReLU"
}

layer {
	bottom: "res5c_branch2b_p"
	top: "res5c_branch2c_p"
	name: "res5c_branch2c_p"
	type: "Convolution"
	convolution_param {
		num_output: 2048
		kernel_size: 1
		pad: 0
		stride: 1
		bias_term: false
	}
}

layer {
	bottom: "res5c_branch2c_p"
	top: "res5c_branch2c_p"
	name: "bn5c_branch2c_p"
	type: "BatchNorm"
	batch_norm_param {
		moving_average_fraction: 0.9
	}
}

layer {
	bottom: "res5c_branch2c_p"
	top: "res5c_branch2c_p"
	name: "scale5c_branch2c_p"
	type: "Scale"
	scale_param {
		bias_term: true
	}
}

layer {
	bottom: "res5b_p"
	bottom: "res5c_branch2c_p"
	top: "res5c_p"
	name: "res5c_p"
	type: "Eltwise"
}

layer {
	bottom: "res5c_p"
	top: "res5c_p"
	name: "res5c_relu_p"
	type: "ReLU"
}

layer {
	bottom: "res5c_p"
	top: "pool5_p"
	name: "pool5_p"
	type: "Pooling"
	pooling_param {
		kernel_size: 7
		stride: 1
		pool: AVE
	}
}




################################### Batch Norm Layer ############################


layer {
    bottom: "pool5"
    top: "pool5"
    name: "bn_pool5"
    type: "BatchNorm"
    batch_norm_param {
      moving_average_fraction: 0.9
    }
}

layer {
    bottom: "pool5"
    top: "pool5"
    name: "scale_pool5"
    type: "Scale"
    scale_param {
        bias_term: true
    }
}

layer {
    bottom: "pool5"
    top: "pool5"
    name: "pool5_relu"
    type: "ReLU"
}

layer {
    bottom: "pool5_p"
    top: "pool5_p"
    name: "bn_pool5_p"
    type: "BatchNorm"
    batch_norm_param {
      moving_average_fraction: 0.9
    }
}

layer {
    bottom: "pool5_p"
    top: "pool5_p"
    name: "scale_pool5_p"
    type: "Scale"
    scale_param {
        bias_term: true
    }
}

layer {
    bottom: "pool5_p"
    top: "pool5_p"
    name: "pool5_p_relu"
    type: "ReLU"
}


################################### Concat Layer ############################


layer {
  name: "pool5_concat"
  type: "Concat"
  bottom: "pool5"
  bottom: "pool5_p"
  top: "pool5_concat"
  concat_param {
    axis: 1
  }
}


layer {
  name: "fc"
  type: "InnerProduct"
  bottom: "pool5_concat"
  top: "fc"
  param {
    lr_mult: 1
    decay_mult: 1
  }
  param {
    lr_mult: 2
    decay_mult: 0
  }
  inner_product_param {
    num_output: 40
    weight_filler {
      type: "xavier"
    }
    bias_filler {
      type: "constant"
      value: 0
    }
  }
}

########################## Loss Layer ##########################
layer {
  bottom: "fc"
  bottom: "label"
  name: "loss"
  top: "loss"
  type: "SigmoidCrossEntropyLoss"
}
